mnist_model.pth (torch, 440304 bytes, 6 tensors)

layers.0.weight f4 [128, 784]
-0.03179888 0.034362137 0.00915111 0.0016358538 0.0025923296 -0.017412012 0.02952368 0.013912427
0.026540073 0.02956079 -0.023679348 0.021460917 0.0018778233 0.011182503 0.01947018 -0.011063459
-0.011901979 -0.030883139 -0.034319624 -0.005223683 0.019485172 0.031133777 0.02610183 0.0283718
0.034104038 0.00013505136 0.016041633 0.013954078 -0.009547843 -0.0067018657 -0.026032891 -0.0352009
-0.019411063 -0.024539122 0.007321703 -0.011244146 0.004550882 -0.027280387 0.028789088 0.012287597
0.010536239 -0.010889714 -0.03495573 -0.047097486 0.11479194 0.018771857 -0.008040236 -0.06640418
-0.03580499 -0.01702771 0.0037591208 -0.040636394 -0.025302254 0.0011901048 0.02424434 -0.025343789
-0.032945417 0.00061923265 0.01022433 0.009422678 -0.025005281 0.052285563 0.0141554875 0.0086723985
0.033687774 -0.0028689636 0.06315791 0.06183194 0.070119604 -0.05738751 -0.024582371 -0.11393382
-0.13110524 -0.15990746 -0.06721222 -0.12578274 -0.07360516 -0.0788727 -0.079094455 -0.030148286
0.09935931 0.0012339142 0.030984582 0.008041131 0.029633991 0.027545938 0.15943426 0.15046188
0.041373488 0.042641927 -0.014144714 -0.035301052 -0.13847022 -0.07164518 -0.07299664 -0.009372538
-0.0255457 0.016408915 -0.027306445 -0.13113187 -0.05952896 -0.028491694 -0.046748504 -0.03153101
-0.06343185 0.013538691 0.056614157 0.05967229 -0.06369123 0.045857467 -0.060105197 -0.011498452
-0.012576861 -0.04779733 0.16111799 0.043256935 0.094036095 0.024782596 0.0014168229 0.010624272
-0.027399978 -0.026041133 -0.019533323 0.002361826 0.03073641 0.042696547 0.07502121 0.051419668
0.08015496 0.08170749 0.028171971 0.051713374 0.090968974 0.070861995 0.02592469 -0.073881164
-0.029958917 0.024274727 0.07499602 -0.07008509 0.009210298 0.03398555 0.12861502 0.053822927
0.11880993 -0.011756 -0.08714205 -0.009354488 -0.014497456 -0.03207798 -0.023886096 -0.073426776
0.021200597 0.026225014 0.03785521 0.03421109 0.08823261 -0.013692225 -0.008321867 0.02526428
0.03054114 0.11684328 0.065086454 -0.009852575 -0.006945205 0.096052825 -0.036243517 -0.12470624
-1.4496702e-05 0.025853438 -0.029923197 0.0866045 0.17295294 -0.024447428 -0.08872277 -0.08458755
-0.05213638 -0.013258111 -0.027415076 -0.08655833 -0.049276028 -0.012034093 -0.01297663 -0.017861526
-0.0011044659 0.03671188 0.013399355 0.014987311 -0.0435235 0.066844806 0.017278945 0.025850218
0.0008356087 -0.01856506 -0.007047101 -0.02403686 0.009216542 0.08409092 0.037063226 0.1821813
0.1729899 0.03503183 -0.013726235 -0.06190884 -0.02040555 -0.02582123 -0.02142758 -0.08512473
-0.047951408 0.0055576656 -0.052171763 -0.02094015 -0.03264628 -0.0063241115 0.07507321 0.09549226
0.056462884 0.13434608 0.10994663 0.054323435 -0.06231677 0.029347725 0.07276183 -0.06334184
-0.07684929 0.13654824 0.03173285 0.01593343 0.21935567 0.044102807 -0.029881561 0.013032187
0.0011332973 0.006279439 -0.016696734 -0.024326395 0.012369868 0.012807996 0.07508667 -0.014726679
0.0013960927 0.022494255 0.044949837 0.02722734 0.07441906 0.0010172672 0.059346713 0.12865432
-0.102953404 -0.019375391 0.120624505 0.048947066 0.016551754 0.110344924 0.08740091 0.061882615
00000000: 8b3f 02bd 50bf 0c3d 8aee 153c 256a d63a
00000010: 13e4 293b a3a3 8ebc a5db f13c f3f0 633c
00000020: 916a d93c 7829 f23c 31fb c1bc cece af3c
00000030: 4b21 f63a d136 373c ed7f 9f3c 8343 35bc
00000040: 8500 43bc a3fe fcbc bc92 0cbd 6e2b abbb
00000050: 5e9f 9f3c 430c ff3c 81d3 d53c fa6b e83c
00000060: adb0 0b3d 939c 0d39 be69 833c a59f 643c
00000070: 8e6e 1cbc 539b dbbb ee42 d5bc d22e 10bd
00000080: f303 9fbc 4506 c9bc e5ea ef3b 5e39 38bc
00000090: 911f 953b 1e7b dfbc 18d7 eb3c eb51 493c
000000a0: 30a0 2c3c c56a 32bc bd2d 0fbd 4be9 40bd
000000b0: 0918 eb3d 70c7 993c 32bb 03bc eafe 87bd
000000c0: 41a8 12bd b27d 8bbc 955b 763b 5972 26bd
000000d0: ac46 cfbc 4afd 9b3a 119c c63c c79d cfbc
000000e0: c6f1 06bd 0054 223a f383 273c 9361 1a3c
000000f0: e0d7 ccbc 6329 563d 6bec 673c ad16 0e3c
00000100: 31fc 093d 3905 3cbb ef58 813d 7d43 7d3d
00000110: de9a 8f3d 2a0f 6bbd f860 c9bc 2256 e9bd
00000120: 7440 06be c8be 23be 8fa6 89bd 31cd 00be
00000130: 4dbe 96bd 0388 a1bd 46fc a1bd 8af9 f6bc
00000140: e57c cb3d 4abb a13a 61d3 fd3c f3be 033c
00000150: fcc2 f23c 05a8 e13c bc42 233e ae12 1a3e
00000160: 3f77 293d 4da9 2e3d 3bbf 67bc d697 10bd
00000170: 23cb 0dbe b5ba 92bd 437f 95bd 468f 19bc
00000180: 3745 d1bc fd6b 863c c4b1 dfbc 6f47 06be
00000190: a4d4 73bd 6a67 e9bc 5c7b 3fbd a926 01bd
000001a0: 8fe8 81bd 63d1 5d3c 3fe4 673d ee6a 743d
000001b0: 8c70 82bd 0ad5 3b3d de30 76bd 0164 3cbc
000001c0: 2e0f 4ebc 22c7 43bd 1dfc 243e 2f2e 313d
000001d0: ff95 c03d df04 cb3c b0b4 b93a 6d11 2e3c
000001e0: eb75 e0bc 3754 d5bc 5904 a0bc ddc8 1a3b
000001f0: ecca fb3c 93e2 2e3d b8a4 993d 6e9d 523d
00000200: 4928 a43d 4256 a73d e8c8 e63c 67d1 533d
00000210: f14d ba3d 1820 913d 0460 d43c 024f 97bd
00000220: 676c f5bc cbdb c63c 8397 993d c688 8fbd
00000230: cae6 163c 6f34 0b3d a8b3 033e 6e75 5c3d
00000240: 9f52 f33d 3d9c 40bc 8877 b2bd 9143 19bc
00000250: bd86 6dbc 3364 03bd c6ac c3bc c760 96bd
00000260: e0ac ad3c d7d5 d63c 110e 1b3d ee20 0c3d
00000270: 4cb3 b43d 5b55 60bc 7158 08bc 09f7 ce3c
00000280: 6a31 fa3c 884b ef3d 0c4c 853d b26c 21bc
00000290: 9a94 e3bb 58b7 c43d 1574 14bd fc65 ffbd
000002a0: dc36 73b7 97ca d33c 7e21 f5bc b35d b13d
000002b0: 931a 313e f945 c8bc 49b4 b5bd 3d3c adbd
000002c0: f58c 55bd 8c38 59bc 9595 e0bc 7e45 b1bd
000002d0: a9d5 49bd a52a 45bc ee9b 54bc 5652 92bc
000002e0: bac3 90ba 325f 163d f888 5b3c 578d 753c
000002f0: b345 32bd eee5 883d 938c 8d3c d6c3 d33c
00000300: c00c 5b3a c115 98bc 5eeb e6bb f3e8 c4bc
00000310: fb00 173c dc37 ac3d 9ccf 173d bc8d 3a3e
00000320: 4424 313e 897d 0f3d 01e4 60bc 2094 7dbd
00000330: 8a29 a7bc 0b87 d3bc e488 afbc e055 aebd
00000340: b268 44bd 141d b63b 0fb2 55bd ad8a abbc
00000350: 1bb8 05bd 7e3a cfbb fcbf 993d 7291 c33d
00000360: a045 673d 0592 093e b32b e13d 4082 5e3d
00000370: df3f 7fbd a46a f03c 2804 953d 5eb9 81bd
00000380: 2963 9dbd 4dd3 0b3e 4efa 013d d386 823c
00000390: c69e 603e 25a5 343d 2dca f4bc f484 553c
000003a0: 268b 943a c1c3 cd3b 97c7 88bc 2648 c7bc
000003b0: fdaa 4a3c a1d8 513c 0ac7 993d 2b48 71bc
000003c0: 19fd b63a df45 b83c 521d 383d df0b df3c
000003d0: 0569 983d d355 853a 8a15 733d f5bd 033e
000003e0: 3cd9 d2bd 24b9 9ebc fb09 f73d b87c 483d
000003f0: 8b97 873c 85fc e13d 40ff b23d a078 7d3d

layers.0.bias f4 [128]
-0.09781128 -0.10100009 -0.04731108 0.2000592 0.041536804 0.0549709 -0.050796535 -0.04621004
0.1035046 0.106599964 -0.008307206 0.014098172 0.038774975 -0.047983583 0.09515557 0.047847
0.014452285 0.046358474 0.13829283 0.026201531 0.0012187173 0.017835155 0.098511 0.018520175
0.038111422 -0.080218576 0.08653359 0.060700305 -0.20286943 0.020474922 -0.040223636 0.14575396
-0.026982272 -0.11814101 0.06667387 0.06377867 0.024193538 -0.082356445 0.04790508 0.013806295
-0.028655458 -0.0019154852 0.1062502 0.081627384 0.050945967 0.1278557 0.058081817 -0.062915936
0.21939287 0.06653459 0.06642351 -0.04459852 -0.051147226 -0.055065177 0.039601292 -0.12165007
0.15147665 -0.04326384 0.048312098 0.12453276 0.027749386 0.004997464 0.017505 0.01333664
-0.09173303 0.20097429 0.0017554807 0.049509443 -0.025930539 -0.0030202635 -0.026714955 0.07438347
-0.06778279 0.027449489 0.026658922 0.04989175 0.109527856 0.010211213 -0.08913936 0.08776654
0.06234706 -0.10323274 0.059678886 0.09645417 0.051611345 0.07416742 0.07962713 0.0120863635
0.004555394 0.19556819 0.04145138 0.11258026 0.006265003 -0.01032039 -0.04361305 0.009158762
0.050998382 0.11735108 -0.079866044 -0.04348028 -0.10710757 0.037856486 0.023449609 0.029201562
-0.014808325 0.037254255 0.035440173 0.038700953 0.031340215 0.04086903 0.14436221 0.044864614
-0.04630287 0.09164256 0.11128429 0.062223703 0.07879492 -0.06484552 0.006026618 0.021381654
0.036616392 0.14147301 5.6345183e-05 0.14821117 0.04949067 -0.06602146 0.0052074124 0.017780308
00000000: 4851 c8bd 23d9 cebd 43c9 41bd 52dc 4c3e
00000010: 7f22 2a3d 2b29 613d 0710 50bd bd46 3dbd
00000020: 38fa d33d 1551 da3d f31a 08bc 05fc 663c
00000030: 82d2 1e3d 6f8a 44bd ece0 c23d 37fb 433d
00000040: 47c9 6c3c 62e2 3d3d a39c 0d3e 98a4 d63c
00000050: 5ebd 9f3a 081b 923c 23c0 c93d 9fb7 973c
00000060: b91a 1c3d a349 a4bd 8638 b13d e2a0 783d
00000070: 01bd 4fbe 06bb a73c 8ac1 24bd 8740 153e
00000080: ed09 ddbc eaf3 f1bd 4f8c 883d 649e 823d
00000090: 8731 c63c 7faa a8bd 1e38 443d cc33 623c
000000a0: dabe eabc 0511 fbba b499 d93d 422c a73d
000000b0: b8ac 503d 9bec 023e 33e7 6d3d 12da 80bd
000000c0: 86a8 603e 4a43 883d 0d09 883d f0ac 36bd
000000d0: c17f 51bd 068c 61bd f734 223d ac23 f9bd
000000e0: b21c 1b3e 6d35 31bd e8e2 453d 080b ff3d
000000f0: ae52 e33c c4c1 a33b a566 8f3c ec81 5a3c
00000100: 87de bbbd 34cc 4d3e 2818 e63a 6aca 4a3d
00000110: 486c d4bc 9def 45bb 52d9 dabc 5c56 983d
00000120: b4d1 8abd c0dd e03c d063 da3c 4b5b 4c3d
00000130: 2450 e03d ee4c 273c b28e b6bd f2be b33d
00000140: a15f 7f3d b06b d3bd d971 743d c489 c53d
00000150: 6b66 533d 17e5 973d 8c13 a33d e205 463c
00000160: 6a45 953b 0743 483e ecc8 293d 7b90 e63d
00000170: a74a cd3b da16 29bc 99a3 32bd a20e 163c
00000180: aee3 503d c355 f03d cf90 a3bd 6118 32bd
00000190: 375b dbbd 670f 1b3d 6519 c03c 1d38 ef3c
000001a0: 9e9e 72bc eb97 183d b729 113d e484 1e3d
000001b0: 995e 003d 4966 273d b0d3 133e f5c3 373d
000001c0: 14a8 3dbd 18af bb3d 05e9 e33d 48de 7e3d
000001d0: 3b5f a13d bacd 84bd f07a c53b 9428 af3c
000001e0: 12fb 153d 4dde 103e 2e54 6c38 abc4 173e
000001f0: bbb6 4a3d 4236 87bd f1a2 aa3b 02a8 913c

layers.2.weight f4 [64, 128]
0.10298144 0.03824423 0.11366261 0.01822523 0.08763658 -0.04620353 0.03133506 0.19313839
0.12668937 -0.03604505 -0.026603514 0.07164218 -0.06688708 0.07035503 0.013226211 0.12707311
-0.043240473 0.2570153 -0.14813852 -0.09141683 -0.031806525 0.020232137 -0.03425287 0.11987009
-0.20054002 0.16736943 0.13086836 -0.083130114 0.27144372 0.14710945 0.042113632 0.1748097
-0.07714214 0.10664692 -0.106797084 0.028660566 -0.030067349 0.08543301 0.089077674 -0.18096076
0.23811518 0.14071523 0.055420283 0.11335123 -0.23792922 0.102536194 0.03901893 -0.046725754
-0.16643369 0.059338406 0.059358217 0.19599202 -0.027827056 0.14909951 0.01325972 0.06572755
-0.051437974 -0.092800796 0.003176994 0.019771952 0.09238558 0.062959805 0.031337027 -0.006438884
-0.06834245 -0.29003185 0.20286691 0.009803441 0.11786333 0.0669366 0.36472225 -0.18692818
0.14561214 -0.080747165 -0.21618399 -0.0712163 0.08218544 -0.07644064 0.29809484 -0.24547201
-0.03593346 0.14574021 -0.06585124 0.07889191 -0.18761699 0.0046425583 -0.11660671 0.19926605
0.17747046 0.25744793 -0.07604828 0.017509539 0.12881549 0.10094841 0.21594845 0.24819005
-0.065931715 -0.1656552 0.12756354 0.094245456 0.04939941 0.2111944 0.3002871 0.13892682
-0.0487731 -0.104829706 0.014426621 0.23607002 -0.11104942 0.23719266 -0.17652273 0.21957581
0.024884181 -0.0866578 -0.0052954834 0.042149965 0.050276984 0.022789111 0.047666855 -0.00887708
0.008621459 -0.03250394 -0.12279028 -0.106141016 -0.049876347 0.016827349 -0.085848644 0.071537636
-0.41297737 0.025121974 0.001769066 0.17605427 0.048401047 -0.028699582 0.11005101 0.007889718
-0.08448341 0.15938859 -0.16310006 0.074243195 0.13580489 -0.16099314 0.02083467 0.23611683
0.110868946 -0.27840897 0.12833363 0.14702669 0.08351677 -0.038162496 -0.036727626 0.25003612
0.14148699 -0.16660449 0.10238301 -0.008296744 -0.14929128 -0.23728554 0.121529594 0.10697321
0.10380698 -0.045709223 0.0044983486 -0.1331329 -0.031566475 -0.04556855 -0.10389296 0.31052947
-0.19192879 -0.06891106 0.06584247 -0.06815031 0.25233993 0.10142828 0.10662075 -0.14430287
-0.19206288 0.06686898 0.06089772 -0.13589135 0.038209848 0.008313478 0.1587055 -0.07755391
0.047963582 0.08697287 -0.03667918 -0.051006746 -0.021350728 0.016654676 0.014517724 0.057196327
0.1648585 0.5460283 -0.3161331 0.12651628 -0.13689655 -0.0074572926 -0.3512605 0.050507337
-0.18714495 0.10020923 -0.053487483 -0.08845079 0.059192054 0.12663604 -0.22870988 0.1359627
0.083576225 -0.034667622 -0.0450441 0.14773455 -0.16056868 0.016693441 -0.117815815 -0.03505038
-0.16235974 -0.09441967 0.01959839 0.076386996 -0.07272281 0.13118735 -0.026708392 0.0017896943
0.020055162 0.22027902 -0.24880332 -0.0055473763 -0.120538056 0.31259683 -0.12241323 0.05929236
0.050558917 0.033762198 0.24390382 -0.14854768 0.046486706 0.039980944 0.02316929 0.2315219
0.0052294782 -0.038826916 0.21217255 0.16280554 -0.079635456 -0.10513456 0.025689261 -0.035667825
0.059429172 0.13257009 0.22041865 0.12029023 0.14176561 -0.02703822 0.026774144 0.029929947
00000000: efe7 d23d fba5 1c3d f1c7 e83d 144d 953c
00000010: cf7a b33d ea3f 3dbd 3159 003d 12c6 453e
00000020: dcba 013e f9a3 13bd 9def d9bc 23b9 923d
00000030: 18fc 88bd 4c16 903d c0b2 583c 741f 023e
00000040: ec1c 31bd 8297 833e a0b1 17be bf38 bbbd
00000050: 8f47 02bd debd a53c bd4c 0cbd 737e f53d
00000060: 5d5a 4dbe e462 2b3e 5b02 063e 1f40 aabd
00000070: acfa 8a3e dca3 163e 587f 2c3d 5001 333e
00000080: b3fc 9dbd b369 da3d 6eb8 dabd 90c9 ea3c
00000090: cd4f f6bc 80f7 ae3d 5b6e b63d c74d 39be
000000a0: 77d4 733e a717 103e 6100 633d b124 e83d
000000b0: b8a3 73be 7ffe d13d 50d2 1f3d 8163 3fbd
000000c0: 986d 2abe d40c 733d 9a21 733d 22b2 483e
000000d0: 91f5 e3bc 8bad 183e 4c3f 593c 2a9c 863d
000000e0: a0b0 52bd 580e bebd 1d35 503b caf8 a13c
000000f0: a734 bd3d 12f1 803d 415b 003d 46fd d2bb
00000100: 20f7 8bbd 0e7f 94be 58bc 4f3e 9d9e 203c
00000110: 5462 f13d 0e16 893d e0bc ba3e 1a6a 3fbe
00000120: 591b 153e c55e a5bd 565f 5dbe dad9 91bd
00000130: d750 a83d e98c 9cbd e39f 983e 045d 7bbe
00000140: f72e 13bd ec3c 153e 04dd 86bd 1592 a13d
00000150: ab1e 40be 9a20 983b 80cf eebd 660c 4c3e
00000160: d1ba 353e 37d0 833e 33bf 9bbd 2a70 8f3c
00000170: 35e8 033e 0abe ce3d 9721 5d3e 8825 7e3e
00000180: 3507 87bd 84a1 29be 04a0 023e c303 c13d
00000190: 0957 4a3d 5843 583e 3bbf 993e d542 0e3e
000001a0: 4dc6 47bd f5b0 d6bd a25d 6c3c 57bc 713e
000001b0: e16d e3bd a2e2 723e 60c2 34be 7bd8 603e
000001c0: e9d9 cb3c a579 b1bd bc85 adbb 71a5 2c3d
000001d0: 3def 4d3d 3bb0 ba3c 523e 433d 2c71 11bc
000001e0: 0541 0d3c da22 05bd 7879 fbbd 7660 d9bd
000001f0: 244b 4cbd 82d9 893c 6ad1 afbd 5382 923d
00000200: c571 d3be 99cc cd3c 01e0 e73a 9247 343e
00000210: 2d40 463d 631b ebbc 6d62 e13d e043 013c
00000220: a305 adbd c336 233e b403 27be d10c 983d
00000230: 7010 0b3e 63db 24be 78ad aa3c 9cc8 713e
00000240: 420f e33d 9f8b 8ebe e469 033e 2a8e 163e
00000250: d70a ab3d 4750 1cbd b56f 16bd bc04 803e
00000260: f7e1 103e 5e9a 2abe 2fae d13d 11ef 07bc
00000270: d0df 18be fbfa 72be 82e4 f83d c514 db3d
00000280: c198 d43d 9839 3bbd e266 933b fe53 08be
00000290: d94b 01bd 16a6 3abd d5c5 d4bd b8fd 9e3e
000002a0: fb88 44be 3e21 8dbd 6bd8 863d 6492 8bbd
000002b0: b332 813e a1b9 cf3d fb5b da3d 22c4 13be
000002c0: 22ac 44be 9bf2 883d e36f 793d 1a27 0bbe
000002d0: ee81 1c3d 4135 083c b283 223e 96d4 9ebd
000002e0: 7675 443d d51e b23d e83c 16bd 73ec 50bd
000002f0: b9e7 aebc 636f 883c bfdb 6d3c b246 6a3d
00000300: abd0 283e 83c8 0b3f 33dc a1be 7c8d 013e
00000310: 9c2e 0cbe 4e5c f4bb 6bd8 b3be c8e0 4e3d
00000320: eda2 3fbe 7f3a cd3d b115 5bbd b025 b5bd
00000330: 5e73 723d e1ac 013e ec32 6abe ce39 0b3e
00000340: 032a ab3d a3ff 0dbd 2a80 38bd ba47 173e
00000350: 1e6c 24be afc0 883c 6b49 f1bd fd90 0fbd
00000360: a241 26be 1a5f c1bd ce8c a03c c970 9c3d
00000370: b2ef 94bd fa55 063e 8fcb dabc 2d94 ea3a
00000380: b94a a43c d390 613e 4cc6 7ebe c4c6 b5bb
00000390: a8dc f6bd b10c a03e cab3 fabd 8cdc 723d
000003a0: de16 4f3d 3b4a 0a3d ecc1 793e e21c 18be
000003b0: d868 3e3d 0fc3 233d 86cd bd3c 1414 6d3e
000003c0: 0b5c ab3b f908 1fbd c343 593e 7fb6 263e
000003d0: ea17 a3bd ca50 d7bd 4972 d23c 6d18 12bd
000003e0: 016c 733d 74c0 073e 6db5 613e b95a f63d
000003f0: 012b 113e 427f ddbc 7355 db3c a62f f53c

layers.2.bias f4 [64]
-0.11761157 0.118976966 0.11266598 0.10583173 -0.023649635 -0.17161898 0.24307002 -0.01871983
0.076330274 0.11198791 0.07492964 -0.017125763 -0.018946406 -0.030633898 -0.09648796 0.078586355
0.06415405 0.03860291 0.10050189 0.038285524 0.12581259 -0.031898905 0.019981008 0.087717816
0.031137787 0.02740239 0.17994097 0.005723329 0.1411337 0.020857066 0.0884583 -0.014257898
0.021664256 0.028091166 -0.07323657 0.084507145 0.14866821 0.080303416 0.082537614 0.07958986
0.16211408 -0.0088850595 0.07579235 0.04740516 0.06599502 -0.06315447 -0.09448776 0.052054085
0.1355288 0.13176513 -0.018140571 -0.09697171 0.0076745967 0.1168919 0.10447086 0.0859877
0.11989568 0.1510465 0.19706789 0.10239677 -0.09976624 0.07614425 0.05724271 0.13313213
00000000: 56de f0bd 32aa f33d 6cbd e63d 4ebe d83d
00000010: e1bc c1bc e3bc 2fbe 59e7 783e 545a 99bc
00000020: 0c53 9c3d eb59 e53d b674 993d 544b 8cbc
00000030: 7e35 9bbc f1f3 fabc 7b9b c5bd e2f1 a03d
00000040: 3363 833d 161e 1e3d efd3 cd3d 48d1 1c3d
00000050: 04d5 003e 6da8 02bd 36af a33c 66a5 b33d
00000060: ac14 ff3c fa7a e03c 7242 383e c38a bb3b
00000070: 5a85 103e 70dc aa3c a029 b53d f599 69bc
00000080: 3d79 b13c 721f e63c 0efd 95bd 1512 ad3d
00000090: 7b3c 183e 1e76 a43d 7b09 a93d 0200 a33d
000000a0: 3c01 263e a492 11bc 0539 9b3d ea2b 423d
000000b0: 6628 873d 2157 81bd cc82 c1bd aa36 553d
000000c0: 10c8 0a3e 70ed 063e 899b 94bc 1b99 c6bd
000000d0: 2f7b fb3b 0565 ef3d d1f4 d53d 521a b03d
000000e0: de8b f53d efab 1a3e 2acc 493e 66b5 d13d
000000f0: 3e52 ccbd 84f1 9b3d 5577 6a3d ca53 083e

layers.4.weight f4 [10, 64]
-0.055859998 -0.22206353 -0.30187178 -0.04694349 -0.30580264 -0.30365205 -0.32678086 -0.15460238
0.11806883 -0.038403723 0.23582911 -0.065310754 -0.1878664 -0.019221833 0.024057562 -0.056631003
-0.31985852 0.22143404 0.118547 0.06239294 -0.17081316 0.03283196 0.06403236 0.048903815
0.16908616 -0.057601392 -0.09270717 0.10427678 0.1326393 -0.14896093 0.164644 0.14854726
-0.26065823 -0.34621847 -0.018185252 0.097447135 -0.28824347 -0.100654945 -0.24838108 -0.17056213
0.14879557 0.27527323 -0.21765392 -0.2510547 0.1339974 -0.065395564 0.2212932 -0.025719931
-0.08595482 0.15788727 -0.008683907 0.12440379 -0.21994738 -0.1899305 -0.23768874 0.05292772
-0.25786147 -0.20011476 -0.008171687 0.0042923116 0.06925548 -0.12529953 0.115496986 0.03594522
-0.081993796 0.15844741 -0.40219903 0.13708095 0.086187325 -0.14732033 -0.17253393 -0.10225107
-0.18612868 0.008990456 0.040195365 -0.22173628 0.0745424 -0.02538898 0.08311518 -0.17022428
0.0286807 -0.12365694 -0.2872833 -0.020509671 0.034787778 -0.07834423 -0.2194797 0.16375943
0.2526985 -0.25682893 -0.104459256 -0.23825823 0.012175415 0.06048978 0.11110496 0.20944816
-0.2351505 0.13663873 -0.11912062 -0.29258555 -0.09671873 0.08265818 0.13006467 0.18226601
-0.17287324 0.063240275 0.19766894 0.077785715 -0.20081894 -0.29685414 -0.22185893 0.12974061
-0.0043802992 -0.17237864 -0.06795529 -0.104311615 0.04132598 -0.18858112 0.033781398 0.27794957
0.02217337 0.18020113 -0.28893277 -0.23918228 -0.008524563 -0.13928434 -0.30776596 0.23284121
0.08221087 -0.28155604 -0.11354871 -0.09386667 -0.008975458 0.18904945 -0.12143332 -0.22188509
0.2241352 -0.015095614 0.019807838 -0.08783467 0.054043055 -0.0037479575 0.014484629 0.025802016
0.46286324 0.18011628 -0.03828487 0.08781259 -0.42938372 -0.074605905 -0.23083858 0.122677736
-0.33401385 0.051482223 0.1635331 -0.21952039 -0.085762806 0.25144762 -0.020979451 0.09161792
0.17800264 0.13688108 -0.106029004 -0.09701252 -0.112312414 0.0475071 0.12884657 0.07166594
-0.022864081 0.09230775 -0.042827576 -0.092342734 -0.15097497 -0.08828143 0.17019956 0.0366957
-0.043687325 -0.20235547 -0.0011997971 0.11255108 -0.07801736 -0.26975283 0.20385538 0.16655666
-0.02989287 0.00037510955 0.12390916 -0.17311333 -0.13032642 -0.1826735 0.015606936 -0.10295235
0.11343261 -0.3413981 -0.012308244 -0.21527235 0.10904238 0.23114794 -0.12788369 0.014408264
-0.20273444 0.10563616 0.07519046 0.19105597 0.14846565 -0.19464923 -0.016364042 -0.013294387
-0.1251623 -0.2618507 0.0424288 0.05678443 0.10574224 0.03596409 0.1839394 -0.29063323
0.10915482 0.17672983 -0.2024326 0.14052565 -0.20830682 -0.12222922 0.12859172 0.05239296
0.0200108 -0.03219145 -0.029016564 -0.1764123 -0.21018562 0.10508793 0.035186086 -0.062587775
-0.13656738 -0.090998925 0.099744834 0.20387544 0.14448655 0.103424735 0.07350993 0.05206893
0.13685921 -0.21602707 0.023744026 0.15850043 0.031953286 0.06791248 0.124059595 -0.48626718
-0.059420228 -0.20602442 -0.2922039 -0.08289837 -0.101944014 -0.22680095 -0.22496676 -0.062432576
00000000: 74cd 64bd 9f64 63be f08e 9abe d147 40bd
00000010: 2a92 9cbe 4878 9bbe d24f a7be 1650 1ebe
00000020: 12ce f13d 394d 1dbd 307d 713e a5c1 85bd
00000030: 0d60 40be 1b77 9dbc 5d14 c53c e9f5 67bd
00000040: 7fc4 a3be 9bbf 623e c5c8 f23d bd8f 7f3d
00000050: a5e9 2ebe ce7a 063d 6623 833d 5e4f 483d
00000060: ec24 2d3e 70ef 6bbd 42dd bdbd 108f d53d
00000070: 99d2 073e 3789 18be 7098 283e c61c 183e
00000080: ff74 85be 8c43 b1be 3df9 94bc 5d92 c73d
00000090: a694 93be 2e24 cebd 9c57 7ebe d7a7 2ebe
000000a0: de5d 183e 9df0 8c3e abe0 5ebe 3e8a 80be
000000b0: 9d36 093e 1cee 85bd af9a 623e 9bb2 d2bc
000000c0: 1509 b0bd 33ad 213e f246 0ebc 6ac7 fe3d
000000d0: e339 61be 247d 42be ad64 73be bdca 583d
000000e0: 6b06 84be e2ea 4cbe 8ae2 05bc 85a6 8c3b
000000f0: d1d5 8d3d 854e 00be af89 ec3d 4c3b 133d
00000100: 5dec a7bd 0a40 223e 08ed cdbe f35e 0c3e
00000110: fb82 b03d 24db 16be bcac 30be 0269 d1bd
00000120: 8498 3ebe b54c 133c e5a3 243d d60e 63be
00000130: b0a9 983d 8dfc cfbc 4b38 aa3d 464f 2ebe
00000140: caf3 ea3c da3f fdbd cc16 93be e603 a8bc
00000150: a17d 0e3d f172 a0bd 49bf 60be 8db0 273e
00000160: b361 813e 157f 83be bcee d5bd f7f9 73be
00000170: 647b 473c 22c4 773d ff8a e33d 9479 563e
00000180: 4bcb 70be 06eb 0b3e 83f5 f3bd c6cd 95be
00000190: 7814 c6bd b148 a93d ac2f 053e f1a3 3a3e
000001a0: af05 31be 1e84 813d ba69 4a3e 1e4e 9f3d
000001b0: 7ba3 4dbe 44fd 97be fd2e 63be b9da 043e
000001c0: 9d88 8fbb 0784 30be 252c 8bbd 54a1 d5bd
000001d0: 6e45 293d 691b 41be 5d5e 0a3d 684f 8e3e
000001e0: eda4 b53c a586 383e ffee 93be 33ec 74be
000001f0: 9caa 0bbc 8ea0 0ebe 8093 9dbe ed6d 6e3e
00000200: 2c5e a83d 1d28 90be 3a8c e8bd 2b3d c0bd
00000210: cd0d 13bc 2e96 413e 08b2 f8bd d835 63be
00000220: b383 653e 9853 77bc 0c44 a23c aae2 b3bd
00000230: 405c 5d3d 4ba0 75bb f050 6d3c c05e d33c
00000240: 69fc ec3e 6770 383e 99d0 1cbd 16d7 b33d
00000250: 2fd8 dbbe fbca 98bd f360 6cbe 773e fb3d
00000260: dd03 abbe 06df 523d 3975 273e f4c9 60be
00000270: 69a4 afbd bebd 803e 19dd abbc 2da2 bb3d
00000280: 5346 363e 8e2a 0c3e bc25 d9bd 80ae c6bd
00000290: 0d04 e6bd ce96 423d 5bf0 033e 98c5 923d
000002a0: 744d bbbc d80b bd3d f86b 2fbd 301e bdbd
000002b0: 2f99 1abe e5cc b4bd cb48 2e3e 3b4e 163d
000002c0: 7bf1 32bd 4636 4fbe 8342 9dba 2e81 e63d
000002d0: 91c7 9fbd 0b1d 8abe 77bf 503e d48d 2a3e
000002e0: e4e1 f4bc 5aaa c439 16c4 fd3d 9f44 31be
000002f0: 4a74 05be c30e 3bbe 3cb4 7f3c afd8 d2bd
00000300: 5b4f e83d bbcb aebe 84a8 49bc 5b70 5cbe
00000310: 9c51 df3d 0cb2 6c3e f1f3 02be a410 6c3c
00000320: 9e99 4fbe c557 d83d 75fd 993d 2da4 433e
00000330: 6107 183e 2152 47be e20d 86bc b3d0 59bc
00000340: 8c2a 00be 4c11 86be d2c9 2d3d ca96 683d
00000350: 638f d83d 154f 133d 9c5a 3c3e e1cd 94be
00000360: 908c df3d aaf8 343e 7e4a 4fbe f5e5 0f3e
00000370: 624e 55be 5053 fabd 8cad 033e 009a 563d
00000380: b0ed a33c 2fdb 03bd 25b4 edbc 6da5 34be
00000390: e63a 57be 5738 d73d 491f 103d 052e 80bd
000003a0: 52d8 0bbe a55d babd 0547 cc3d b9c4 503e
000003b0: 48f4 133e 59d0 d33d 608c 963d 3b46 553d
000003c0: d224 0c3e 3336 5dbe d582 c23c f04d 223e
000003d0: 73e1 023d b315 8b3d f512 fe3d 03f8 f8be
000003e0: a062 73bd 11f8 52be c09b 95be 9fc6 a9bd
000003f0: 06c8 d0bd 823e 68be b05d 66be 4db9 7fbd

layers.4.bias f4 [10]
-0.06687014 -0.011508614 -0.031530872 -0.034833115 -0.076128036 0.23717095 -0.022274 -0.027611839
-0.06764211 0.026434211
00000000: 36f3 88bd a08e 3cbc 8426 01bd 2bad 0ebd
00000010: 04e9 9bbd f1dc 723e f777 b6bc 3932 e2bc
00000020: f287 8abd 8f8c d83c
